Model: "model"
_________________________________________________________________
 Layer (type)                Output Shape              Param #   
=================================================================
 input_1 (InputLayer)        [(None, 32, 32, 3)]       0         
                                                                 
 lambda (Lambda)             (None, 256, 256, 3)       0         
                                                                 
 vit-b16 (Functional)        (None, 768)               85844736  
                                                                 
 flatten (Flatten)           (None, 768)               0         
                                                                 
 batch_normalization (Batch  (None, 768)               3072      
 Normalization)                                                  
                                                                 
 dense (Dense)               (None, 32)                24608     
                                                                 
 batch_normalization_1 (Bat  (None, 32)                128       
 chNormalization)                                                
                                                                 
 dense_1 (Dense)             (None, 10)                330       
                                                                 
=================================================================
Total params: 85872874 (327.58 MB)
Trainable params: 26538 (103.66 KB)
Non-trainable params: 85846336 (327.48 MB)
_________________________________________________________________


Epoch 1/2
  1/200 [..............................] - ETA: 35:12 - loss: 2.924
…
